…
e_val': 8, 'num_layers': 2, 'learning_rate': 0.001, 'continue_training': False, 'model_chkpt': '', 'd_model': 16, 'nhead': 2, 'wandb': False, 'test': True, 'max_nb_steps': -1, 'train_test_split': 0.9, 'which_dataset': 100, 'sweep': '', 'd_embedding': 2, 'seed': 1337, 'nb_samples': 1000, 'model_path': './models', 'pathway': 'op2op', 'save_every': 2, 'model_id': 'mes19f_2023-12-07_19h09m42828ms', 'chkpt_file_exists': False, 'epochs_completed': 0, 'model_file_name': 'mes19f_2023-12-07_19h09m42828ms_chkpt000.pth', 'n_steps_per_epoch': 12, 'metrics': (...)}, 'model': Model(
  (orthography_embedding): Embedding(26, 16)
  (orth_position_embedding): Embedding(11, 16)
  (phonology_embedding): Embedding(34, 16)
  (phon_position_embedding): Embedding(9, 16)
  (orthography_encoder): Encoder(
    (transformer_encoder): TransformerEncoder(
      (layers): ModuleList(
        (0-1): 2 x TransformerEncoderLayer(
          (self_attn): MultiheadAttention(
            (out_proj): NonDynamicallyQuantizableLinear(in_features=16, out_features=16, bias=True)
          )
          (linear1): Linear(in_features=16, out_features=64, bias=True)
          (dropout): Dropout(p=0.1, inplace=False)
          (linear2): Linear(in_features=64, out_features=16, bias=True)
          (norm1): LayerNorm((16,), eps=1e-05, elementwise_affine=True)
          (norm2): LayerNorm((16,), eps=1e-05, elementwise_affine=True)
          (dropout1): Dropout(p=0.1, inplace=False)
          (dropout2): Dropout(p=0.1, inplace=False)
        )
      )
    )
  )
  (phonology_encoder): Encoder(
    (transformer_encoder): TransformerEncoder(
      (layers): ModuleList(
        (0-1): 2 x TransformerEncoderLayer(
          (self_attn): MultiheadAttention(
            (out_proj): NonDynamicallyQuantizableLinear(in_features=16, out_features=16, bias=True)
          )
          (linear1): Linear(in_features=16, out_features=64, bias=True)
          (dropout): Dropout(p=0.1, inplace=False)
          (linear2): Linear(in_features=64, out_features=16, bias=True)
          (norm1): LayerNorm((16,), eps=1e-05, elementwise_affine=True)
          (norm2): LayerNorm((16,), eps=1e-05, elementwise_affine=True)
          (dropout1): Dropout(p=0.1, inplace=False)
          (dropout2): Dropout(p=0.1, inplace=False)
        )
      )
    )
  )
  (gp_multihead_attention): MultiheadAttention(
    (out_proj): NonDynamicallyQuantizableLinear(in_features=16, out_features=16, bias=True)
  )
  (gp_layer_norm): LayerNorm((16,), eps=1e-05, elementwise_affine=True)
  (pg_multihead_attention): MultiheadAttention(
    (out_proj): NonDynamicallyQuantizableLinear(in_features=16, out_features=16, bias=True)
  )
  (pg_layer_norm): LayerNorm((16,), eps=1e-05, elementwise_affine=True)
  (transformer_mixer): Encoder(
    (transformer_encoder): TransformerEncoder(
      (layers): ModuleList(
        (0-1): 2 x TransformerEncoderLayer(
          (self_attn): MultiheadAttention(
            (out_proj): NonDynamicallyQuantizableLinear(in_features=16, out_features=16, bias=True)
          )
          (linear1): Linear(in_features=16, out_features=64, bias=True)
          (dropout): Dropout(p=0.1, inplace=False)
          (linear2): Linear(in_features=64, out_features=16, bias=True)
          (norm1): LayerNorm((16,), eps=1e-05, elementwise_affine=True)
          (norm2): LayerNorm((16,), eps=1e-05, elementwise_affine=True)
          (dropout1): Dropout(p=0.1, inplace=False)
          (dropout2): Dropout(p=0.1, inplace=False)
        )
      )
    )
  )
  (reduce): Linear(in_features=16, out_features=16, bias=True)
  (reduce_layer_norm): LayerNorm((16,), eps=1e-05, elementwise_affine=True)
  (orthography_decoder): Decoder(
    (transformer_decoder): TransformerDecoder(
      (layers): ModuleList(
        (0-1): 2 x TransformerDecoderLayer(
          (self_attn): MultiheadAttention(
            (out_proj): NonDynamicallyQuantizableLinear(in_features=16, out_features=16, bias=True)
          )
          (multihead_attn): MultiheadAttention(
            (out_proj): NonDynamicallyQuantizableLinear(in_features=16, out_features=16, bias=True)
          )
          (linear1): Linear(in_features=16, out_features=64, bias=True)
          (dropout): Dropout(p=0.1, inplace=False)
          (linear2): Linear(in_features=64, out_features=16, bias=True)
          (norm1): LayerNorm((16,), eps=1e-05, elementwise_affine=True)
          (norm2): LayerNorm((16,), eps=1e-05, elementwise_affine=True)
          (norm3): LayerNorm((16,), eps=1e-05, elementwise_affine=True)
          (dropout1): Dropout(p=0.1, inplace=False)
          (dropout2): Dropout(p=0.1, inplace=False)
          (dropout3): Dropout(p=0.1, inplace=False)
        )
      )
    )
  )
  (linear_orthography_decoder): Linear(in_features=16, out_features=26, bias=True)
  (phonology_decoder): Decoder(
    (transformer_decoder): TransformerDecoder(
      (layers): ModuleList(
        (0-1): 2 x TransformerDecoderLayer(
          (self_attn): MultiheadAttention(
            (out_proj): NonDynamicallyQuantizableLinear(in_features=16, out_features=16, bias=True)
          )
          (multihead_attn): MultiheadAttention(
            (out_proj): NonDynamicallyQuantizableLinear(in_features=16, out_features=16, bias=True)
          )
          (linear1): Linear(in_features=16, out_features=64, bias=True)
          (dropout): Dropout(p=0.1, inplace=False)
          (linear2): Linear(in_features=64, out_features=16, bias=True)
          (norm1): LayerNorm((16,), eps=1e-05, elementwise_affine=True)
          (norm2): LayerNorm((16,), eps=1e-05, elementwise_affine=True)
          (norm3): LayerNorm((16,), eps=1e-05, elementwise_affine=True)
          (dropout1): Dropout(p=0.1, inplace=False)
          (dropout2): Dropout(p=0.1, inplace=False)
          (dropout3): Dropout(p=0.1, inplace=False)
        )
      )
    )
  )
  (linear_phonology_decoder): Linear(in_features=16, out_features=66, bias=True)
), 'opt': AdamW (
Parameter Group 0
    amsgrad: False
    betas: (0.9, 0.999)
    capturable: False
    differentiable: False
    eps: 1e-08
    foreach: None
    fused: None
    lr: 0.001
    maximize: False
    weight_decay: 0.01
), 'ds': <src.dataset.ConnTextULDataset object at 0x7f458f27fbb0>, 'model_id': 'mes19f_2023-12-07_19h09m42828ms', 'epochs_c
…
