…
num_layers': 4, 'learning_rate': 0.001, 'continue_training': False, 'model_chkpt': '', 'd_model': 128, 'nhead': 4, 'wandb': False, 'test': False, 'max_nb_steps': -1, 'train_test_split': 0.8, 'which_dataset': 'all', 'sweep': '', 'd_embedding': 1, 'seed': 1337, 'nb_samples': None, 'model_path': './models', 'pathway': 'op2op', 'save_every': 1, 'model_id': 'codespace_2023-12-13_23h54m24051ms', 'chkpt_file_exists': False, 'epochs_completed': 0, 'model_file_name': 'codespace_2023-12-13_23h54m24051ms_chkpt000.pth', 'n_steps_per_epoch': 2218, 'metrics': (...)}, 'model': Model(
  (orthography_embedding): Embedding(49, 128)
  (orth_position_embedding): Embedding(16, 128)
  (phonology_embedding): Embedding(34, 128)
  (phon_position_embedding): Embedding(14, 128)
  (orthography_encoder): Encoder(
    (transformer_encoder): TransformerEncoder(
      (layers): ModuleList(
        (0-3): 4 x TransformerEncoderLayer(
          (self_attn): MultiheadAttention(
            (out_proj): NonDynamicallyQuantizableLinear(in_features=128, out_features=128, bias=True)
          )
          (linear1): Linear(in_features=128, out_features=512, bias=True)
          (dropout): Dropout(p=0.1, inplace=False)
          (linear2): Linear(in_features=512, out_features=128, bias=True)
          (norm1): LayerNorm((128,), eps=1e-05, elementwise_affine=True)
          (norm2): LayerNorm((128,), eps=1e-05, elementwise_affine=True)
          (dropout1): Dropout(p=0.1, inplace=False)
          (dropout2): Dropout(p=0.1, inplace=False)
        )
      )
    )
  )
  (phonology_encoder): Encoder(
    (transformer_encoder): TransformerEncoder(
      (layers): ModuleList(
        (0-3): 4 x TransformerEncoderLayer(
          (self_attn): MultiheadAttention(
            (out_proj): NonDynamicallyQuantizableLinear(in_features=128, out_features=128, bias=True)
          )
          (linear1): Linear(in_features=128, out_features=512, bias=True)
          (dropout): Dropout(p=0.1, inplace=False)
          (linear2): Linear(in_features=512, out_features=128, bias=True)
          (norm1): LayerNorm((128,), eps=1e-05, elementwise_affine=True)
          (norm2): LayerNorm((128,), eps=1e-05, elementwise_affine=True)
          (dropout1): Dropout(p=0.1, inplace=False)
          (dropout2): Dropout(p=0.1, inplace=False)
        )
      )
    )
  )
  (gp_multihead_attention): MultiheadAttention(
    (out_proj): NonDynamicallyQuantizableLinear(in_features=128, out_features=128, bias=True)
  )
  (gp_layer_norm): LayerNorm((128,), eps=1e-05, elementwise_affine=True)
  (pg_multihead_attention): MultiheadAttention(
    (out_proj): NonDynamicallyQuantizableLinear(in_features=128, out_features=128, bias=True)
  )
  (pg_layer_norm): LayerNorm((128,), eps=1e-05, elementwise_affine=True)
  (transformer_mixer): Encoder(
    (transformer_encoder): TransformerEncoder(
      (layers): ModuleList(
        (0-3): 4 x TransformerEncoderLayer(
          (self_attn): MultiheadAttention(
            (out_proj): NonDynamicallyQuantizableLinear(in_features=128, out_features=128, bias=True)
          )
          (linear1): Linear(in_features=128, out_features=512, bias=True)
          (dropout): Dropout(p=0.1, inplace=False)
          (linear2): Linear(in_features=512, out_features=128, bias=True)
          (norm1): LayerNorm((128,), eps=1e-05, elementwise_affine=True)
          (norm2): LayerNorm((128,), eps=1e-05, elementwise_affine=True)
          (dropout1): Dropout(p=0.1, inplace=False)
          (dropout2): Dropout(p=0.1, inplace=False)
        )
      )
    )
  )
  (reduce): Linear(in_features=128, out_features=128, bias=True)
  (reduce_layer_norm): LayerNorm((128,), eps=1e-05, elementwise_affine=True)
  (orthography_decoder): Decoder(
    (transformer_decoder): TransformerDecoder(
      (layers): ModuleList(
        (0-3): 4 x TransformerDecoderLayer(
          (self_attn): MultiheadAttention(
            (out_proj): NonDynamicallyQuantizableLinear(in_features=128, out_features=128, bias=True)
          )
          (multihead_attn): MultiheadAttention(
            (out_proj): NonDynamicallyQuantizableLinear(in_features=128, out_features=128, bias=True)
          )
          (linear1): Linear(in_features=128, out_features=512, bias=True)
          (dropout): Dropout(p=0.1, inplace=False)
          (linear2): Linear(in_features=512, out_features=128, bias=True)
          (norm1): LayerNorm((128,), eps=1e-05, elementwise_affine=True)
          (norm2): LayerNorm((128,), eps=1e-05, elementwise_affine=True)
          (norm3): LayerNorm((128,), eps=1e-05, elementwise_affine=True)
          (dropout1): Dropout(p=0.1, inplace=False)
          (dropout2): Dropout(p=0.1, inplace=False)
          (dropout3): Dropout(p=0.1, inplace=False)
        )
      )
    )
  )
  (linear_orthography_decoder): Linear(in_features=128, out_features=49, bias=True)
  (phonology_decoder): Decoder(
    (transformer_decoder): TransformerDecoder(
      (layers): ModuleList(
        (0-3): 4 x TransformerDecoderLayer(
          (self_attn): MultiheadAttention(
            (out_proj): NonDynamicallyQuantizableLinear(in_features=128, out_features=128, bias=True)
          )
          (multihead_attn): MultiheadAttention(
            (out_proj): NonDynamicallyQuantizableLinear(in_features=128, out_features=128, bias=True)
          )
          (linear1): Linear(in_features=128, out_features=512, bias=True)
          (dropout): Dropout(p=0.1, inplace=False)
          (linear2): Linear(in_features=512, out_features=128, bias=True)
          (norm1): LayerNorm((128,), eps=1e-05, elementwise_affine=True)
          (norm2): LayerNorm((128,), eps=1e-05, elementwise_affine=True)
          (norm3): LayerNorm((128,), eps=1e-05, elementwise_affine=True)
          (dropout1): Dropout(p=0.1, inplace=False)
          (dropout2): Dropout(p=0.1, inplace=False)
          (dropout3): Dropout(p=0.1, inplace=False)
        )
      )
    )
  )
  (linear_phonology_decoder): Linear(in_features=128, out_features=66, bias=True)
), 'opt': AdamW (
Parameter Group 0
    amsgrad: False
    betas: (0.9, 0.999)
    capturable: False
    differentiable: False
    eps: 1e-08
    foreach: None
    fused: None
    lr: 0.001
    maximize: False
    weight_decay: 0.01
), 'ds': <src.dataset.ConnTextULDataset object at 0x7fbae115bc10>, 'model_id': 'codespace_2023-12-13_23h54m24051ms', 'epoc
…
